checkpoints/cnn_stl_sr.pth (torch, 36388 bytes, 7 tensors)

conv1.weight f4 [16, 1, 2]
00000000: e282 8d3d b655 263f 249c 5a3e 42ab 28bf
00000010: 689f 15bf 1c36 1dbe e4b2 e23e b5b9 563e
00000020: 28b6 18bf cad5 8b3e a896 34bf bb97 ddbe
00000030: 2381 133f 8995 89be 676f 243f 9de6 dd3e
00000040: 745e 85be 5dd7 c5bd 39d6 a73e af72 cd3e
00000050: 49dc b3be 6107 afbe b17f 993c b729 d5be
00000060: 4b38 eb3e 92d0 35be 7ef9 14bf 1edf 163f
00000070: 5bc6 a4be 197e fabc 2fcf 033f 5c24 713b
0.069097295 0.64974535 0.21348625 -0.6588632 -0.5844636 -0.15352672 0.44277108 0.20969279
-0.5965295 0.27311546 -0.70542383 -0.43279824 0.5761892 -0.268719 0.64232486 0.43340006
-0.26048625 -0.09660218 0.32780626 0.4012656 -0.35129002 -0.34185317 0.018737646 -0.41633388
0.45941386 -0.17755345 -0.58193195 0.589342 -0.32182583 -0.030577706 0.5148801 0.0036795354

conv1.bias f4 [16]
00000000: 97c1 a0bd 3e8f 33bd 4e93 babe 05fd 0fbf
00000010: 2d5b 2dbf 2278 1cbf 5c63 6abe 76f4 383f
00000020: de8c 9cbc 220f 9dbe c021 09be b38b 3dbd
00000030: 9f9f 95be 8b91 39be 5a35 2dbf 5e76 893d
-0.07849424 -0.04383778 -0.3644051 -0.5624545 -0.6771725 -0.6112081 -0.22889465 0.7224802
-0.01911014 -0.30675608 -0.13391781 -0.046275806 -0.29223344 -0.18121926 -0.67659533 0.0671203

conv2.weight f4 [16, 16, 2]
00000000: 419f 70bb 7e5b ddbd 262d ebbd 6cca d4bd
00000010: c880 39bd 0c4c af3d e715 5ebd cb9b 513d
00000020: d9a1 fb3d 56ae 233e 7fa7 a2bd e848 e63a
00000030: 4c88 ebbd 94cc 863c 00ca d73d aa2f 0ebe
00000040: e506 313e ef79 25be 6341 973c 34d2 1cbe
00000050: 82d8 8d3d e7b0 5cbd f090 2abe ed11 1f3c
00000060: 174d 99bd 67a4 d93d 10a0 043d b964 b03b
00000070: 2254 1cbe 40b6 da3d 9043 0dbb d479 cbbd
00000080: c428 afbd 9bcd 1fbe f551 07bc ca3a b33d
00000090: ecf5 0c3e 0a27 a3bd 4703 ffbc 5737 14be
000000a0: 2b0a 453d fa8d ac3d d621 e43d e245 69bd
000000b0: 6bca d53b daae e4bd e11e 81bd a634 c3ba
000000c0: 42b1 233e ab78 2b3e 9ebc e63d db6a 0dbe
000000d0: cfb1 c1bd fb2d 023e 5eed a8bc 188f 2ebd
000000e0: 9a41 2a3e 2ff2 91bd 1598 a03d f6aa 75bc
000000f0: 6492 ee3d c833 083e d4cf 9d3d b419 0bbe
00000100: 53ad 34bd 4d8c 953d 6d16 2b3e bc3c 293e
00000110: 5132 dfbd 6acc 103d 4f52 12be d3e4 d1bd
00000120: 434c 1fbb 1a6f 1f3e 6d2c 5dbc 753d 323e
00000130: b2c0 f2bc c932 713c c0d6 613c 0d40 283d
00000140: 2684 ecbd cce8 17bd 4c12 22bd 25f5 f43d
00000150: e81b 19be 4409 053c 8a40 603d 4548 3f3d
00000160: 1e34 7a3b 5ae1 48be f2f4 693d fbf4 7dbc
00000170: 42be 28bd e14e fc3d bdcd fd3d f102 933d
00000180: ddf7 d0bd abad afbc 6745 2cbe ad6f 143d
00000190: 78a9 fdbd a4b3 1ebe 804a b13d 85bc b73c
000001a0: 7f45 e53d 67e7 133e d3d9 d4bb b058 2a3e
000001b0: f150 0fbe 335e 053e aade da3d 0dea 09be
000001c0: 3dcf ca3d 0464 8e3c 3442 13bd 8122 0dbe
000001d0: 4eb3 6a3d 2003 443b d8de 293e c856 f3bc
000001e0: 0309 e43c a171 233c dbea cd3d 49d5 1b3c
000001f0: acc2 90bc 9db9 42bd 4f19 ad3d 9c45 fc3d
00000200: c75f 44bd e469 6bbd ebc0 a6bc d9bd 8fbd
00000210: f734 a03d 47f6 0a3c 5af7 2c3e 0d2a 33be
00000220: a090 ce3b 7f9c 263e 4834 133d 28e8 34bd
00000230: f234 d4bd 62b5 25be 1f74 f2bd bebd efbd
00000240: c6a3 15be b775 0dbe 756f 13bd af7c 33bc
00000250: 300f d33d 8341 c3bd 702d 2b3e 9e3d 723d
00000260: 9628 9f3d 42c4 113d 98ae cd3d 765c 83bd
00000270: a2ec 263e 6b65 073e f831 81bd 484e efbd
00000280: e619 ad3d 08b3 0f3d b2f3 5dbd aacd 1fbc
00000290: 7bc6 063e 6c7f 113d caba d2bd 7ddc d8bd
000002a0: 062f bbbd f18c 51bd 4c71 f3bc cac9 a2bd
000002b0: b052 2b3d 392f a0bd ab49 993d 2635 dfbd
000002c0: 8a85 abbd d8e8 f9bd 42d0 6b3d 279f 4ebc
000002d0: 4521 efbd cf33 8f3d 315c 2a3e e43a 6bbc
000002e0: 72c8 cbbd 685e 1ebe 6c05 08be 3c41 0fbe
000002f0: ccbb e23d 7773 7fbd 521a b53d b3b8 a5bd
00000300: 3d7d 00be 2b90 443b a87b 67bd 516f 08bd
00000310: eb9a 10be a45f 063e f7b8 453c 138f 4dbc
00000320: 489f 0ebd 7259 603d 7d0d 313e c80d dcba
00000330: 7845 4d3c 9557 203d 2326 113e be1d c73c
00000340: a4e0 ebbd 5fba 2c3e c0eb 083e e35b 963c
00000350: 82d1 08be 6c87 00bd f52a e33d f336 5c3d
00000360: b553 8f3d 6c3f 2bbe 2b12 273d f554 b03d
00000370: bc1f c53d 6a75 f23d 6294 2a3b ab81 5ebd
00000380: fcd1 493c 23f9 953d 13eb bc3d 2908 f73d
00000390: 7b16 f73d 2b9d e93d afb3 30bd ccfd 1b3e
000003a0: f604 bb3d 7e54 b2bc f1eb 12be b04d 4f3c
000003b0: ed24 7a3d 923d 753d c836 2f3c bf2e e03d
000003c0: a404 20bc 3b74 e3bd bc87 963d 1e7b 0fbe
000003d0: 1e17 03be df19 2b3e 2a94 c1ba 75d8 f1bc
000003e0: 5cc4 3fbd 48ac 9bbd c576 fc3c 5322 77bd
000003f0: 6409 32be 7414 04bd 7b1e b13d 1054 a5bd
-0.0036716016 -0.108084664 -0.11483221 -0.103901714 -0.04528883 0.08559427 -0.054220106 0.051173966
0.12286729 0.15984473 -0.079421036 0.0017569335 -0.11500606 0.016454972 0.10536575 -0.1388537
0.17287786 -0.16159795 0.018463796 -0.15314561 0.06926061 -0.053879645 -0.16656852 0.009708864
-0.07485407 0.106270604 0.03237921 0.005383101 -0.15266469 0.10679293 -0.0021555163 -0.09935346
-0.08552697 -0.15605776 -0.008259286 0.087514475 0.13765687 -0.079664305 -0.031129492 -0.14474235
0.0481054 0.084255174 0.11139266 -0.05695141 0.0065243742 -0.11166163 -0.06304718 -0.001489301
0.15985587 0.1674525 0.112664446 -0.13810293 -0.094577424 0.12712853 -0.020620998 -0.042616934
0.16626588 -0.07126271 0.07841507 -0.014994374 0.116490155 0.13301003 0.07705656 -0.13584024
-0.044110607 0.07302151 0.16707774 0.16527075 -0.10898269 0.035351194 -0.1428921 -0.10248723
-0.002430693 0.15569726 -0.013499361 0.17406256 -0.0296329 0.014721581 0.013784111 0.04107671
-0.11548643 -0.037087247 -0.03956823 0.1196082 -0.14952052 0.008119885 0.05474905 0.04669978
0.0038178037 -0.19617215 0.057118364 -0.015500302 -0.04119707 0.123197325 0.12392757 0.071782954
-0.10203526 -0.021445116 -0.1682335 0.036239315 -0.12385839 -0.15498215 0.08656788 0.02242876
0.11194896 0.14443742 -0.0064956932 0.16635394 -0.1399572 0.13024215 0.10687001 -0.1346819
0.09902809 0.017381676 -0.035951808 -0.13782693 0.057299905 0.002990909 0.16588914 -0.029704466
0.027836328 0.009975822 0.10054561 0.0095113 -0.017670952 -0.047540296 0.08452093 0.123179644
-0.047942903 -0.057474032 -0.020355662 -0.070186324 0.07822602 0.008481569 0.16891232 -0.1749651
0.0063038617 0.16270636 0.03593853 -0.044166714 -0.10361661 -0.16182473 -0.118385546 -0.11706112
-0.14613256 -0.13814436 -0.035994966 -0.01095502 0.10305631 -0.0953398 0.16716552 0.059140794
0.07771413 0.035587557 0.10043067 -0.0641412 0.16301206 0.13222282 -0.06308359 -0.11684853
0.08452205 0.035082847 -0.054187484 -0.009753624 0.13161652 0.03552191 -0.102895334 -0.1058893
-0.091398284 -0.051159803 -0.02971711 -0.079486445 0.041826904 -0.07821507 0.07484754 -0.10898809
-0.0837508 -0.122026145 0.057571657 -0.012611187 -0.116762675 0.069923036 0.1663673 -0.014357302
-0.09950341 -0.154657 -0.13283318 -0.13989729 0.11070976 -0.062365975 0.08842911 -0.08091869
-0.12547775 0.0029993157 -0.056514412 -0.033309285 -0.14121597 0.13122422 0.012068025 -0.012546319
-0.03481987 0.0547728 0.17290302 -0.0016788775 0.01252877 0.039146025 0.14174704 0.024306174
-0.11517456 0.1686797 0.13371181 0.018354362 -0.13361171 -0.03137915 0.11092178 0.05376334
0.06998388 -0.16723412 0.04078881 0.08609954 0.096251935 0.11838801 0.0026028384 -0.05432288
0.012318131 0.0732291 0.09224524 0.12062103 0.12064835 0.114069305 -0.04314011 0.15233535
0.091318056 -0.021768805 -0.14347817 0.0126527995 0.06107037 0.05987317 0.010694213 0.10946416
-0.009766731 -0.111061536 0.07350108 -0.14011809 -0.12801787 0.16709088 -0.0014768888 -0.02952216
-0.046818122 -0.076012194 0.030818352 -0.06033547 -0.17386395 -0.032246068 0.08648392 -0.08072674

conv2.bias f4 [16]
00000000: cd0b b5bc d34b b53d 9ae3 e43d 8733 e4bd
00000010: 017b 003e 6805 173e 2d51 07be ea31 023e
00000020: 68a0 34be 2828 bebd e4da 89bd e76e 463d
00000030: 6a1e 133e 9b2b ffbd 56cd 7f3d 6738 133e
-0.022100354 0.08852353 0.11176224 -0.111426406 0.12546922 0.14748156 -0.1321456 0.12714353
-0.17639315 -0.09285003 -0.06731203 0.04844561 0.14367071 -0.12459489 0.062451683 0.14376985

fc1.weight f4 [20, 384]
00000000: a36b 45bd a3ba babc 217c 98bc 3050 223d
00000010: 48f5 ed3c 2192 ba3c 3946 88bc 00ec 063d
00000020: f5af 1b3d afff a73b 0ab8 0dbd c06b 40bc
00000030: a5d3 1dbd 9b6a 9b3b ecc0 393d 47aa 29bd
00000040: ba1a 203d e86b 9bbc e0f0 9d3c 76d6 06bd
00000050: ceb6 933c 4b1e 2bbd 626b a43c 3172 3cbb
00000060: 5807 d8bc 35e5 a83c 87b0 3c3d fd78 4b3c
00000070: 88c3 fdbb f3c5 8ebc 7dd9 823c e7c3 503d
00000080: a586 d7bc b0c7 513c f982 7fbc 6ef1 c33c
00000090: 5215 2cbd e992 9e3c adcc 703c 1358 39bc
000000a0: c684 31bc 44bc c9bc f4c8 1ebc eb45 473d
000000b0: 67f8 983b 9391 043d dd84 e2bc f253 07bd
000000c0: 8775 96bc 0dfe 623d 4e7c 01bd ac5e a13b
000000d0: 7d9a 0cbd 3ca1 4c3c eca5 a4b9 4aaf 0d3d
000000e0: 164e cdbc 8838 a83b 4371 2ebc b488 cf3c
000000f0: ee4b 273d 381c c93c 4188 813d 2c3b e63c
00000100: 6ee9 0e3d 50a6 19bc 161e 253d 3440 f23c
00000110: 88e3 793d 56fd 233d 474f 313d ed25 733c
00000120: 5196 09bd ccb4 06bd 46b7 13bc fb5a 833c
00000130: 512e 1bbd 5384 c83b 4723 06bd c3b9 dd3c
00000140: 06a0 c7bc 896b e4bc cafa 2ebd b533 1dbd
00000150: d879 21bc bf88 1b3d 328a 01bd 88c8 bebc
00000160: 3cad 0c3d 2108 e83b 0044 edba 7691 b739
00000170: 26b5 4d3d 08b9 04bd 950e 29bc 4438 08bc
00000180: 608e dcbb 7840 8c3c d655 e33b 91c5 17bd
00000190: d423 e33c cff3 b3bb 8614 21bd f360 debc
000001a0: d3d2 46bd e4b6 21bd 924a e43c 7bb1 04bd
000001b0: d2b1 38bd 6f4d d4bb 6e3b 3ebb e288 02bd
000001c0: 784a 2d3d c636 c73c 8e38 d7bc a949 18bd
000001d0: 0689 8739 3efc 4abc 2694 4b3d c18c d3bc
000001e0: c201 d13b e092 7f3d 3a06 b1bc 849f d13b
000001f0: 2332 e13c 24c3 a63c 50a6 dabb 5785 f33c
00000200: d8eb d4bc d29c 5ebc 89f8 bc3b 07c2 d0bc
00000210: 9dee f1bc c1dd 853d 81e2 ca3c 1950 8039
00000220: 0609 1e3d 29e8 763d e9cd d6bc f5f5 f6bb
00000230: 9022 b4bc 189e b03c 88e2 163c 513b cd3c
00000240: eb8a 603d e9ce 56bc af69 443d f61f 093d
00000250: 46f0 673a c45c 1d3d e410 c2bc 5c37 3f3d
00000260: 9997 eabc df6e 0b3d 30fb 483d 7529 603c
00000270: 66bd 833d 3a32 543d 757c 00bc df29 29bc
00000280: 5398 7f3d 225a b13c a692 1d3c 211f bdbc
00000290: d96b 803d 59d3 aebc a4f4 d4bc 6814 3d3d
000002a0: 01a5 523d 7516 16bd 348a b5bc 41f9 0b3d
000002b0: b1ca 9a3b 8a72 913c fd76 203d 9598 3f3d
000002c0: c209 4f3d 4a0f fa3c f820 fd3c 191a 083c
000002d0: ab26 2a3b fc37 e63c 2643 663d 8b95 3ebc
000002e0: 2e71 09bd 43e1 adbc ff6c 753d 7cee a93c
000002f0: 8d3e e13c 80e4 023d d18c 5e3c e81c 463d
00000300: 186e afbc 4116 95bc 3996 49bd d053 50bd
00000310: 2b8c 233d 31c9 a33b d23f c7bb 1b92 753c
00000320: 892e c13b 171a b73c ead8 063c 3242 a2bc
00000330: 1ef5 4dbc 769d 0ebd 8251 e43c 6098 5c3c
00000340: fe71 4abd 0520 49bd 15a8 fbbc e2ec cabc
00000350: 6ba3 4ebd 3b5f 46bb 9f7c e339 3edc a33c
00000360: 312f 08bd ef38 21bd 5635 b33c 2718 0b3d
00000370: 9933 abbb bb76 20bd 4a48 3e3b 506a 96bc
00000380: 1cf2 303c cf5f 0cbd 8a41 fe3c dfaf a7bb
00000390: 2e86 a73b 367f 4c3c a1f2 4fbd 1dee c8bb
000003a0: 52d7 4abd 1fd8 f5bb a1b2 383c f5f6 4cbd
000003b0: aaa9 103d f6ea e3bc 5de0 4b3d 504f 3ebd
000003c0: 3372 da3c fee1 b63c edd6 f8bc db65 25bc
000003d0: c95d 713c e96b 1cbd 3431 8e3c d89d ec3c
000003e0: 356d 9b3b 29c8 4c3d c688 933c 182a 343d
000003f0: f9ca 4f3d d024 0b3c 2baf 03bd ef56 23bb
-0.048198353 -0.022794073 -0.018613877 0.039627254 0.029047623 0.022774758 -0.016635047 0.03293991
0.038009603 0.0051269154 -0.03459934 -0.01174444 -0.038531918 0.004742933 0.04535 -0.041422155
0.03908799 -0.018972352 0.019279897 -0.03291937 0.018031504 -0.041776937 0.020070735 -0.0028754587
-0.02637069 0.020617107 0.046066787 0.012418983 -0.0077442564 -0.017428374 0.015972847 0.050968077
-0.02630932 0.012803957 -0.015595191 0.023918834 -0.04201252 0.019357162 0.014697236 -0.011312502
-0.010834878 -0.024625905 -0.009691466 0.048650663 0.0046682837 0.032365393 -0.027651245 -0.03303904
-0.018366588 0.055418063 -0.031612687 0.004924616 -0.03432702 0.012489613 -0.0003140414 0.034590997
-0.025061648 0.005133692 -0.010647121 0.02533374 0.040843897 0.024549589 0.063248165 0.028104387
0.034890585 -0.009378031 0.040311895 0.02957163 0.061008006 0.04003652 0.043288495 0.014840585
-0.03359062 -0.032887265 -0.009015864 0.016034594 -0.037885968 0.00611929 -0.032748487 0.027066117
-0.024368297 -0.027883308 -0.04271964 -0.03837939 -0.00985571 0.037972208 -0.031625934 -0.02328898
0.034344897 0.007081047 -0.0018101931 0.00035012857 0.050221585 -0.032403022 -0.010318418 -0.008314196
-0.0067308396 0.017120585 0.0069377227 -0.03705365 0.027727045 -0.0054917107 -0.039326213 -0.027145838
-0.0485409 -0.03948106 0.02786759 -0.03239582 -0.045091458 -0.0064789574 -0.0029027122 -0.031868823
0.042307347 0.02431811 -0.026272085 -0.037179623 0.00025851297 -0.012389241 0.049701832 -0.025823953
0.0063783834 0.06239593 -0.021609414 0.0063971896 0.027489727 0.020356722 -0.006672658 0.029726667
-0.025991365 -0.013587194 0.0057669324 -0.025483144 -0.029532725 0.06536437 0.024766209 0.0002447374
0.038582824 0.06028 -0.026221232 -0.0075366446 -0.021989137 0.02155976 0.009209283 0.025052698
0.054819982 -0.013110855 0.04795235 0.033477746 0.0008847754 0.038418546 -0.023689695 0.046683654
-0.02863674 0.03404128 0.049067676 0.013681759 0.06432609 0.051805712 -0.007842173 -0.010324924
0.062401127 0.021649424 0.009617483 -0.023086132 0.0627057 -0.021341013 -0.02599556 0.04616204
0.05142689 -0.03664251 -0.022160627 0.034173254 0.0047238697 0.017754812 0.039175976 0.046776373
0.050546415 0.030524869 0.03089951 0.008307003 0.002596299 0.028102867 0.05621638 -0.0116323335
-0.033555202 -0.021225577 0.0599184 0.020743601 0.027495647 0.031956196 0.013583378 0.04836741
-0.021414801 -0.018199088 -0.04921553 -0.05086118 0.039928596 0.004998349 -0.006080606 0.014988448
0.00589544 0.022351308 0.008230427 -0.019806955 -0.0125706475 -0.034818135 0.027870897 0.013464063
-0.049425118 -0.0491028 -0.030719796 -0.024771158 -0.050448816 -0.0030269164 0.00043389664 0.02000248
-0.03324813 -0.039360937 0.021876018 0.03395858 -0.005224657 -0.03917573 0.0029034787 -0.01836124
0.010799911 -0.034271058 0.03103711 -0.005117401 0.005112431 0.012481501 -0.0507685 -0.006131901
-0.04952175 -0.0075025703 0.011273057 -0.050040204 0.035318054 -0.027821999 0.049774516 -0.046462357
0.026665783 0.022324558 -0.030375922 -0.010095085 0.014731833 -0.03818885 0.017357446 0.02888386
0.004743243 0.049995575 0.018009555 0.043985456 0.05073068 0.0084926635 -0.032149475 -0.0024923643

fc1.bias f4 [20]
00000000: 93b5 64bb c944 033c 754c 06bd 7729 df3c
00000010: 0ad0 f1bc d284 82bc 20ae a13c 6aa2 99bc
00000020: cf4f 2f3d 511d 00bd fed7 88bc 2ca3 edbc
00000030: b093 9a3c c8ce 253d fcd5 993c e967 923c
00000040: 46dc 2dbd 8db9 df3c 7353 26bd bfc7 47bd
-0.0034898266 0.008012005 -0.03278776 0.027241452 -0.029518146 -0.015932474 0.01973635 -0.018754203
0.04280072 -0.03127796 -0.016704556 -0.02900847 0.018869251 0.040480405 0.018778794 0.017871814
-0.042446397 0.027310157 -0.040606927 -0.048774477

fc2.weight f4 [1, 20]
00000000: be4a 003e b6d2 933d 0621 01bd b819 263e
00000010: 9200 5bbc d152 8abc 926d 8b3d 1911 fb3d
00000020: 4ab4 e13d 1060 d03d 0667 13be 8ada 6fbd
00000030: 2410 5d3e dbeb 233e 7680 41bd 3524 2d3e
00000040: 878f 2fbd 6b19 193e 18b7 0f3e bddf 18be
0.12528512 0.07217924 -0.031525634 0.16220748 -0.013366835 -0.016885193 0.06808008 0.122591205
0.110207155 0.101745725 -0.14394769 -0.058558024 0.21588188 0.1600794 -0.04724165 0.16908343
-0.042861488 0.14951102 0.14034688 -0.149291
