checkpoints/cnn_stl_sr.pth (torch, 36388 bytes, 7 tensors)

conv1.weight f4 [16, 1, 2]
-0.096860535 0.04483708 0.29147193 0.044579536 -0.012329079 0.47249153 0.0075294804 0.48112246
-0.006302634 0.6075308 0.6213709 -0.648085 0.5775764 0.6283172 0.37441337 0.03233465
-0.23910813 0.2783375 0.48613122 0.6620874 0.20449536 0.40260944 -0.4029746 -0.019693114
-0.021455139 0.28371158 0.1489467 -0.64760315 -0.29075933 0.56512064 0.53629833 0.5999449
00000000: d15e c6bd 16a7 373d cf3b 953e 0899 363d
00000010: e8ff 49bc 69ea f13e dcb9 f63b af55 f63e
00000020: 5386 cebb 2387 1b3f 2a12 1f3f e6e8 25bf
00000030: 0cdc 133f 65d9 203f 1cb3 bf3e 5771 043d
00000040: c3d8 74be 4182 8e3e 31e6 f83e 8f7e 293f
00000050: 3b67 513e d322 ce3e b052 cebe 7453 a1bc
00000060: b0c2 afbc a542 913e 7c85 183e 52c9 25bf
00000070: 68de 94be bfab 103f d94a 093f fd95 193f

conv1.bias f4 [16]
-0.6965059 0.23094447 -0.43301788 -0.46547338 0.37137714 0.3276531 0.479005 0.11844892
0.3563053 -0.62554276 0.40350458 -0.63660544 -0.15158595 0.54579276 -0.2200989 0.6561005
00000000: 364e 32bf b57c 6c3e 85b4 ddbe 8752 eebe
00000010: 2525 be3e 26c2 a73e 2540 f53e 5995 f23d
00000020: a66d b63e 9223 20bf 2798 ce3e 93f8 22bf
00000030: 5939 1bbe 13b9 0b3f 9b61 61be 34f6 273f

conv2.weight f4 [16, 16, 2]
-0.08301047 -0.05988321 -0.03852346 0.13382377 -0.045604765 -0.1393001 0.16963021 -0.09984681
0.14660054 0.04818609 -0.12058565 0.055923663 -0.17483102 0.026315333 0.026472667 0.0148954755
-0.10253061 -0.097217165 -0.086072795 0.14325304 -0.17120026 -0.050292335 0.046978522 0.011078615
0.024847021 -0.002442726 0.14935315 0.098744646 0.0053342525 0.13099693 0.13705178 -0.10918154
-0.085169256 0.032794632 -0.12078262 -0.06757592 0.010707301 -0.024234438 -0.17388147 -0.1698054
0.024831532 0.13401625 -0.13739952 0.045151033 -0.07720428 -0.06449018 -0.032664943 -0.031080307
-0.14746958 -0.12837681 -0.1346216 -0.12115345 0.0360914 -0.11482234 -0.17659108 -0.14060728
-0.043551475 -0.0066797063 -0.14673594 0.008758263 -0.04824383 -0.07457233 -0.14745803 -0.11671421
-0.023845738 -0.15486915 0.015632356 0.06972633 -0.25787744 -0.08453994 -0.09138008 0.086478904
0.15323769 0.0025861133 -0.06250991 0.10865516 0.049293727 0.09592499 0.014966203 -0.12686445
0.03256887 -0.14480865 0.10773513 -0.02563878 -0.019671513 0.10905772 -0.09797743 -0.06828841
0.1357879 0.13439074 0.07482108 -0.06347051 -0.20027861 -0.25635678 -0.12343193 -0.17603807
0.032565605 0.0985513 -0.01244155 -0.09513619 -0.06879972 0.2558327 -0.2295795 0.18495694
-0.051656555 0.122995056 0.14320478 -0.39377984 0.03375189 -0.15933494 0.018087639 -0.10146071
-0.045584153 0.09583827 0.036586866 0.094219364 0.07761685 0.1286094 -0.083449766 -0.10964606
-0.004851771 -0.09052213 0.048608515 -0.25011596 -0.2532533 0.14285684 -0.18084697 0.14353977
-0.05745075 0.15233266 -0.0766479 -0.17203091 -0.16758187 0.1644413 -0.1533792 -0.12417504
0.09302661 0.008801947 0.09037169 0.07975193 0.106941745 -0.097708575 -0.05865444 0.08864167
-0.16223086 -0.13365054 0.057533145 -0.12055425 -0.05154901 -0.06539155 -0.08452889 0.112582915
-0.12826991 -0.1194868 -0.1244026 0.116908826 0.08354605 -0.1526034 0.061352048 -0.006570862
-0.032942228 0.045159273 0.09595592 0.008789533 -0.04876188 -0.071275994 -0.07124157 0.21093675
0.044606745 0.024602853 -0.06424007 0.0051389523 0.1293561 -0.09754096 0.017676651 0.06055726
-0.086672254 0.1327698 0.022529619 0.046762895 0.08905766 -0.13565032 -0.12836008 -0.10499846
0.03344881 -0.1756461 -0.014450861 0.072912045 -0.24391891 -0.033546634 0.02405101 -0.17066859
-0.02633017 -0.038906157 -0.123105906 -0.0025536995 -0.11457653 -0.060640585 -0.1817228 -0.08598017
0.12334837 0.046735935 0.14582972 -0.1137671 -0.053774316 0.11983338 0.11746277 0.14247294
0.060081147 -0.16549446 -0.043786444 -0.14443733 -0.13890897 0.020242574 -0.046849802 -0.096292436
0.046367317 -0.06142437 -0.15721408 0.09124175 -0.15275562 -0.134416 -0.059917323 0.06838295
-0.049156018 0.1701774 -0.050581403 -0.0042487816 0.16473162 -0.034638807 0.15771054 0.15191682
0.09258929 -0.0098746065 0.105258025 0.065968394 0.041134395 -0.029801846 -0.12095458 0.07337298
-0.15047088 -0.15653776 -0.09053444 0.09595495 -0.15754394 -0.15960626 -0.10065004 0.15834619
0.11759215 -0.16313843 -0.082979664 -0.05676291 0.0971998 -0.17504907 -0.09268124 0.12994418
00000000: 6501 aabd 1948 75bd c7ca 1dbd 1909 093e
00000010: 10cc 3abd afa4 0ebe 8bb3 2d3e 7c7c ccbd
00000020: 741e 163e c75e 453d 9cf5 f6bd 3610 653d
00000030: e706 33be 4193 d73c 35dd d83c 270c 743c
00000040: 92fb d1bd cb19 c7bd ef46 b0bd edb0 123e
00000050: 1f4f 2fbe 56ff 4dbd 8d6c 403d 1483 353c
00000060: fb8b cb3c 2416 20bb 08f0 183e a23a ca3d
00000070: f4ca ae3b 0f24 063e 4d57 0c3e 929a dfbd
00000080: 386d aebd aa53 063d e15c f7bd 3e65 8abd
00000090: ad6d 2f3c 4d87 c6bc fc0d 32be 77e1 2dbe
000000a0: 7f6b cb3c 8e3b 093e 76b2 0cbe 4af0 383d
000000b0: 471d 9ebd 6d13 84bd adcb 05bd 219c febc
000000c0: 4402 17be 3675 03be 3fda 09be 4d1f f8bd
000000d0: 93d4 133d fa27 ebbd 4bd4 34be 5bfb 0fbe
000000e0: 0863 32bd 70e1 dabb f241 16be d17e 0f3c
000000f0: 539b 45bd 61b9 98bd 3dff 16be dc07 efbd
00000100: 2358 c3bc 0596 1ebe 6d0f 803c aecc 8e3d
00000110: 8308 84be 4723 adbd 7b25 bbbd da1b b13d
00000120: 57ea 1c3e c87b 293b 3205 80bd 9986 de3d
00000130: 38e8 493d 5274 c43d ce34 753c c1e8 01be
00000140: ef66 053d b848 14be 3ca4 dc3d 6b08 d2bc
00000150: 2726 a1bc a759 df3d 64a8 c8bd cbda 8bbd
00000160: fc0b 0b3e ba9d 093e cb3b 993d d4fc 81bd
00000170: d615 4dbe 3241 83be e1c9 fcbd 5343 34be
00000180: 8363 053d 44d5 c93d a5d7 4bbc c3d6 c2bd
00000190: dee6 8cbd 81fc 823e e316 6bbe 5a65 3d3e
000001a0: d395 53bd d5e4 fb3d 46a4 123e 839d c9be
000001b0: 6c3f 0a3d b328 23be 872c 943c a2ca cfbd
000001c0: 73b6 3abd db46 c43d 1cdc 153d 15f6 c03d
000001d0: 95f5 9e3d 2fb2 033e b6e7 aabd 1d8e e0bd
000001e0: 9bfb 9ebb ab63 b9bd b919 473d 330f 80be
000001f0: 6baa 81be 1049 123e f32f 39be 17fc 123e
00000200: 7a51 6bbd 18fd 1b3e 93f9 9cbd df28 30be
00000210: 959a 2bbe 4d63 283e 700f 1dbe 7c4f febd
00000220: bc84 be3d 0b36 103c cb14 b93d fb54 a33d
00000230: 4604 db3d 6f1b c8bd a33f 70bd c489 b53d
00000240: d91f 26be b0db 08be e0a7 6b3d 26e5 f6bd
00000250: 0e25 53bd 01ec 85bd 7c1d adbd df91 e63d
00000260: 3059 03be 7fb5 f4bd cac6 febd e56d ef3d
00000270: 311a ab3d 1144 1cbe 494c 7b3d 6350 d7bb
00000280: 6eee 06bd eef8 383d 8a84 c43d f901 103c
00000290: 89ba 47bd 26f9 91bd 1ae7 91bd ceff 573e
000002a0: 90b5 363d ec8b c93c 4c90 83bd a864 a83b
000002b0: ed75 043e 8ec3 c7bd a0ce 903c e40a 783d
000002c0: 3981 b1bd cef4 073e 0990 b83c 738a 3f3d
000002d0: dd63 b63d ebe7 0abe d370 03be 6f09 d7bd
000002e0: 9f01 093d 92dc 33be 4ec3 6cbc e952 953d
000002f0: e1c5 79be 3268 09bd a006 c53c bfc3 2ebe
00000300: 5eb2 d7bc 105c 1fbd f31e fcbd f85b 27bb
00000310: 1aa7 eabd 4362 78bd 8b15 3abe 5f16 b0bd
00000320: 129e fc3d 2e6e 3f3d 6354 153e bafe e8bd
00000330: 7542 5cbd 346b f53d 5290 f03d 6de4 113e
00000340: a617 763d 6177 29be 6a59 33bd 61e7 13be
00000350: 273e 0ebe c1d3 a53c 94e5 3fbd f834 c5bd
00000360: a8eb 3d3d 1f98 7bbd bafc 20be f4dc ba3d
00000370: f86b 1cbe 59a4 09be de6b 75bd 5c0c 8c3d
00000380: d257 49bd fc42 2e3e 722e 4fbd 5d39 8bbb
00000390: 68af 283e 6ce1 0dbd df7e 213e 1590 1b3e
000003a0: 749f bd3d 1ac9 21bc 8591 d73d 701a 873d
000003b0: 8a7c 283d 0023 f4bc 09b7 f7bd 9344 963d
000003c0: 0a15 1abe 6f4b 20be 1f6a b9bd 0784 c43d
000003d0: 3353 21be d36f 23be 9c21 cebd 8125 223e
000003e0: 27d4 f03d c30d 27be 3ef1 a9bd 3a80 68bd
000003f0: b010 c73d 1040 33be a9cf bdbd 1610 053e

conv2.bias f4 [16]
0.054514017 -0.098053694 0.007719087 0.14441729 0.0021719956 -0.0062721553 -0.13845861 -0.04173132
-0.14295103 0.08495762 -0.17109801 -0.063378066 -0.038719952 0.02417294 -0.11623689 0.05425244
00000000: 174a 5f3d 60d0 c8bd 65f0 fc3b 20e2 133e
00000010: 0a58 0e3b a786 cdbb 18c8 0dbe 76ee 2abd
00000020: c161 12be 43fe ad3d 5134 2fbe 5ccc 81bd
00000030: d098 1ebd 5406 c63c 9b0d eebd ce37 5e3d

fc1.weight f4 [20, 384]
0.03192435 -0.02569956 -0.011205404 0.0013296491 0.019006364 -0.0118482895 -0.027689984 -0.006595746
0.03408127 0.04813627 -0.046713565 -0.0475731 -0.026594417 -0.020248054 -0.026454482 -0.026815128
-0.021731898 -0.007919981 0.0057151774 0.0052495864 0.048309524 0.044859443 0.041917827 0.044833727
0.004470404 0.032133944 -0.04260149 -0.05101889 0.03966072 -0.03865341 0.027217185 0.031569734
-0.03213407 0.046381928 -0.025560597 -0.03969816 -0.018184355 0.020234548 0.0040852716 0.046315998
0.028571082 0.017630845 0.041129198 0.025413368 0.044985775 -0.022019397 0.015326604 0.038960584
0.0077099376 0.036465675 0.008178923 0.0008097861 -0.058589067 -0.035907015 -0.022475025 0.026634295
0.03632388 0.0366469 0.03642025 0.0040114513 0.01904827 0.030377552 -0.0036939196 -0.0058331313
0.031400412 -0.0036595082 -0.022790872 0.00056302815 -0.0364655 0.042090025 -0.021157926 0.066050455
0.026890045 -0.06390434 -0.03648045 0.013724175 0.033051696 -0.015997669 0.03040666 -0.029951038
-0.007902009 0.003489917 0.054903984 0.028940909 -0.036876388 -0.011891005 0.043527693 -0.019514456
0.028021261 -0.04552052 0.09610215 0.028278068 0.010241151 -0.011954685 -0.010822507 -0.28846437
0.029786736 -0.025169466 -0.040763676 0.020676043 -0.009358042 0.0075176875 0.016741201 -0.017711585
0.050888255 0.043528017 -0.05048501 0.00279747 0.03267262 0.006791448 0.03695443 -0.0052002324
0.031935904 -0.041848302 0.0010086355 -0.036257625 0.00053763035 -0.02306125 -0.024164766 0.04863888
-0.011795324 -0.0074569695 -0.031129474 0.014418824 -0.030507408 -0.013445459 -0.010847339 -0.016058853
-0.011981094 -0.025270132 0.01712288 0.0139804 0.026044367 -0.027097475 -0.004969327 -0.034458756
0.038184807 -0.037345313 -0.0029842039 0.018677074 -0.03177522 0.062658034 0.016100196 -0.042112272
-0.0114472695 -0.04091977 0.0021017734 -0.00046924397 -0.0014441438 0.033621274 0.035818804 0.01004999
0.010987773 0.03172171 -0.04346209 0.012340074 -0.04718719 -0.04176277 -0.0018724917 0.0114506
0.048354656 -0.04205805 -0.03181768 0.0062402296 0.029367004 0.02034081 -0.021943325 -0.016125921
0.0057096416 -0.042676274 -0.0027604222 0.020999776 -0.013641455 -0.050514225 0.04295847 -0.0062855184
-0.0210699 -0.032686874 0.022684311 -0.00091167266 0.013875433 -0.0234562 -0.0045385864 0.0062992363
-0.020778986 0.044590265 -0.0012977053 0.050277527 -0.012851431 -0.013704534 0.034133617 0.039437775
0.015197813 0.037612762 0.007733921 0.044085912 -0.021292064 -0.031032884 -0.046079196 -0.0382095
0.016147269 -0.00070314674 0.025510848 -0.012705479 0.0025742343 0.036959294 0.02899426 0.045680046
0.013363816 -0.020143852 -0.024477288 -0.026485665 -0.047670387 0.028735176 0.020876624 0.042419408
-0.040206473 -0.048833936 0.045604736 -0.0077511203 0.03736562 -0.04467937 0.0090541495 -0.04921184
-0.0031806026 -0.010425832 -0.022932222 -0.031716686 0.0142182475 -0.0031099287 0.014537913 0.03452872
0.011961052 0.03528525 0.0010808175 0.038364276 -0.0074313465 0.037587896 0.031984475 0.04374728
-0.02122938 -0.034036707 0.0044517824 0.02962061 0.006475581 -0.007198085 -0.002459064 0.011261639
0.006547821 -0.03116586 -0.0067664697 0.03433318 -0.026517835 -0.0075668166 0.044382446 -0.047111966
00000000: 1bc3 023d e287 d2bc df96 37bc 9f47 ae3a
00000010: 3cb3 9b3c 541f 42bc 1bd6 e2bc 2121 d8bb
00000020: cd98 0b3d 8a2a 453d b956 3fbd 03dc 42bd
00000030: 89dc d9bc 3fdf a5bc 12b7 d8bc 66ab dbbc
00000040: 1807 b2bc cfc2 01bc 6246 bb3b b904 ac3b
00000050: 35e0 453d 89be 373d 07b2 2b3d 92a3 373d
00000060: 777c 923b e29e 033d e67e 2ebd 2ff9 50bd
00000070: 4773 223d 0a53 1ebd 93f6 de3c 444f 013d
00000080: 049f 03bd fafa 3d3d 7564 d1bc 8a9a 22bd
00000090: 5bf7 94bc ecc2 a53c bedd 853b d8b5 3d3d
000000a0: e70d ea3c 906e 903c 1777 283d b22f d03c
000000b0: 0143 383d 0662 b4bc 701c 7b3c 2295 1f3d
000000c0: a5a3 fc3b 085d 153d e400 063c d347 543a
000000d0: 17fb 6fbd 3c13 13bd 8b1d b8bc 2a30 da3c
000000e0: 59c8 143d 0f1b 163d 662d 153d 7e72 833b
000000f0: 1e0b 9c3c 58da f83c b015 72bb da23 bfbb
00000100: b89d 003d 5cd4 6fbb ecb3 babc 2e98 133a
00000110: d95c 15bd 9766 2c3d 6353 adbc 7645 873d
00000120: 8348 dc3c 47e0 82bd 866c 15bd 5ddb 603c
00000130: 3761 073d 8b0d 83bc 6317 f93c e15b f5bc
00000140: 6e77 01bc 17b7 643b 00e3 603d 7c15 ed3c
00000150: b20b 17bd 7dd2 42bc 184a 323d c8dc 9fbc
00000160: d88c e53c ba73 3abd 34d1 c43d 68a7 e73c
00000170: 80ca 273c 95dd 43bc e250 31bc 9ab1 93be
00000180: 5003 f43c 3230 cebc d0f7 26bd ce60 a93c
00000190: 7952 19bc ef56 f63b d824 893c e317 91bc
000001a0: 3470 503d 6f4a 323d 5fc9 4ebd c255 373b
000001b0: bad3 053d cc8a de3b 875d 173d b666 aabb
000001c0: 39cf 023d 2069 2bbd 3134 843a e082 14bd
000001d0: c3ef 0c3a f2ea bcbc 30f5 c5bc 9039 473d
000001e0: 2d41 41bc 9859 f4bb 3d03 ffbc ee3c 6c3c
000001f0: acea f9bc 584a 5cbc 0ab9 31bc db8d 83bc
00000200: 5a4c 44bc 4f03 cfbc 4845 8c3c 0c0e 653c
00000210: ff5a d53c 86fb ddbc bcd5 a2bb a024 0dbd
00000220: ac67 1c3d 66f7 18bd a292 43bb aa00 993c
00000230: bc26 02bd db52 803d 8fe4 833c eb7d 2cbd
00000240: 548d 3bbc 7d9b 27bd e8bd 093b dc04 f6b9
00000250: 6d49 bdba 76b6 093d bdb6 123d b7a8 243c
00000260: 0f06 343c a0ee 013d 4e05 32bd 062e 4a3c
00000270: 5b47 41bd 700f 2bbd 656e f5ba 4c9b 3b3c
00000280: 880f 463d 1045 2cbd 4153 02bd d77a cc3b
00000290: 1293 f03c c5a1 a63c 7dc2 b3bc 821a 84bc
000002a0: f217 bb3b 51cd 2ebd 33e8 34bb b907 ac3c
000002b0: 6980 5fbc 01e8 4ebd 38f5 2f3d c0f6 cdbb
000002c0: c89a acbc ace2 05bd 73d4 b93c 51fd 6eba
000002d0: c955 633c 3727 c0bc 6cb8 94bb d369 ce3b
000002e0: b138 aabc 48a4 363d c417 aaba cfef 4d3d
000002f0: cf8e 52bc fb88 60bc b1cf 0b3d 8189 213d
00000300: 3f00 793c d70f 1a3d d56c fd3b 6e93 343d
00000310: b26c aebc ad38 febc 8abd 3cbd 9181 1cbd
00000320: 4747 843c 6153 38ba 20fc d03c a42a 50bc
00000330: 7cb4 283b a162 173d 5f85 ed3c 001b 3b3d
00000340: e8f3 5a3c b804 a5bc 9884 c8bc 77f8 d8bc
00000350: 0642 43bd 0866 eb3c 7405 ab3c f9bf 2d3d
00000360: 8baf 24bd 1806 48bd 08cc 3a3d 1cfd fdbb
00000370: b10c 193d b701 37bd db57 143c 5b92 49bd
00000380: a871 50bb 1cd1 2abc 5bdc bbbc 5be9 01bd
00000390: a7f3 683c f2cf 4bbb 6d30 6e3c fd6d 0d3d
000003a0: 4af8 433c 4487 103d 38aa 8d3a dc23 1d3d
000003b0: a782 f3bb c4f5 193d 2702 033d 5930 333d
000003c0: 3de9 adbc 136a 0bbd 42e0 913b eca6 f23c
000003d0: 1c31 d43b eadd ebbb 3f28 21bb bd82 383c
000003e0: 1b8f d63b 8c4f ffbc 43b9 ddbb f3a0 0c3d
000003f0: ee3b d9bc 0ff3 f7bb 5eca 353d 7af8 40bd

fc1.bias f4 [20]
0.012499706 0.035888843 0.013201771 0.014068612 0.034624763 -0.04420872 -0.012552373 0.004162964
-0.00440362 -0.0074809706 -0.011278984 0.0041290037 -0.008524299 -0.018377822 0.03279751 0.007039149
-0.009719828 0.02936239 -0.0063223056 0.0026907336
00000000: 91cb 4c3c 2e00 133d 3e4c 583c 0980 663c
00000010: b2d2 0d3d 3414 35bd 78a8 4dbc 7969 883b
00000020: 3e4c 90bb ee22 f5bb 7dcb 38bc 984c 873b
00000030: 80a9 0bbc 168d 96bc af56 063d a9a8 e63b
00000040: ea3f 1fbc 6589 f03c 582b cfbb 0557 303b

fc2.weight f4 [1, 20]
0.20313512 0.12850463 -0.1763713 -0.2277071 0.08362584 0.089795984 -0.23450552 0.1316911
0.16603059 -0.05146975 -0.106684 0.08505152 -0.031931903 -0.21716952 0.07992196 0.25601682
0.09288526 0.09448685 -0.15556042 -0.14337628
00000000: a702 503e b896 033e ae9a 34be 0d2c 69be
00000010: 0644 ab3d f5e6 b73d 3722 70be 08da 063e
00000020: ec03 2a3e f2d1 52bd 247d dabd 7e2f ae3d
00000030: 07cb 02bd b061 5ebe 20ae a33d a314 833e
00000040: a13a be3d 5282 c13d 3b4b 1fbe 3bd1 12be
